…
3.Model is trained and it weights are saved
4.Signals output of hiden layers are displayed 
4.1 signal of Relu is used for traing
4.2 signal of all other activation function is shown after relu is changed for other functions in longest layer (not trained)


IV.important versions:
keras: 2.6.0
numpy: 1.19.5
tensorflow: 2.6.0
python 3.9

V.model:
Model: "sequential"
____________________________
input shape: (40)
_____________________________________
Layer (type)                 Output Shape              Param #   
=================================================================
dense (Dense)                (None, 60)                2460      
_________________________________________________________________
dense_1 (Dense)              (None, 80)                4880      
_________________________________________________________________
dense_2 (Dense)              (None, 100)               8100      
_________________________________________________________________
dense_3 (Dense)              (None, 75)                7575      
_________________________________________________________________
dense_4 (Dense)              (None, 50)                3800      
_________________________________________________________________
dense_5 (Dense)              (None, 25)                1275      
_________________________________________________________________
dense_6 (Dense)              (None, 5)                 130       
=================================================================
Total params: 28,220
Trainable params: 28,220
Non-trainable params: 0

VI.discussion

Q1. there are huge areas with out put of zeros:
A: yes, this expected and downside of using relu activation

Q2. why leakyRelu is NOT having same output as relu if they are same "famillies":
A: leakyrelu and relu behave in same way only for positives outputs
…
